model/model.pth (torch, 16799 bytes, 4 tensors)

linear1.weight f4 [256, 11]
00000000: bb83 323e 3416 a33e a6d4 a9bd cec5 63bd
00000010: 72e3 1d3e 58c4 203d 89c8 32be 72e5 823d
00000020: 2e88 09be f2f7 71be 2617 b73e c91e 893e
00000030: 1984 a6be 2b45 cdbc 5f02 363d eae5 89be
00000040: c7bf 5abe f672 1ebd c8e2 d63d 3854 783e
00000050: 84f2 8f3e 7d3e 093d 8af2 953d ea85 223e
00000060: a26c 233e ba48 d53d fa53 0f3d 6b3a 933e
00000070: 0d0a 7d3e e54b 85be 8e5a c33d dd05 933e
00000080: 2a18 853d 2c4d 45be c139 bd3e 3bf7 fbbc
00000090: b915 8abd 499a 183e fbdf d93d 1079 533e
000000a0: 95d2 183e 40ab 47be 4b26 523e 7bf7 72be
000000b0: f2a8 b2be e981 833e aea5 edbd caf4 993d
000000c0: d017 81be 016d 5a3e ad0a a5be 668b 3d3d
000000d0: f425 a03d 2f35 a43e 6819 473e 621e 753e
000000e0: f047 b9be 1b49 70be 8d19 7f3e aa97 cfbd
000000f0: 2369 aa3e 9f2a 503e a510 82bd f6cb 823d
00000100: 7450 44be 6bed 833e 7783 07be 9faf 903e
00000110: 5513 363e c759 81bd 2066 bf3d 31ef 983e
00000120: 9bd1 8ebd 9d1c 6abe b03f 8f3a 8fdb 163d
00000130: 3098 8c3e e4a1 f03d e058 7fbe 1fc5 263e
00000140: 24d6 cb3d ec52 1bbd 60e1 50bd 26b0 4dbe
00000150: c465 d1bd e0f5 f3bc 2f94 83be 9c3f 6abe
00000160: ee61 8f3e 3e73 58bd 82d3 95be 3ec4 24be
00000170: 6e85 5bbe 1cda 833e 462f 79be e9c5 82be
00000180: 5c2a 71bd ecdb 8e3e 51bb 543e f1b9 053e
00000190: 493f 193d abf8 803e 2509 313c df81 393e
000001a0: 3e47 3fbe 5b66 7f3e 5977 c43d 187a 29be
000001b0: 8595 163e 0119 9a3e 01e4 dfbd 90d4 b53e
000001c0: 4140 183c bf4a 0abe 90a6 80be eff8 cc3d
000001d0: 1fb0 4d3e fec0 3dbe 683b 8d3c 4b44 a33e
000001e0: 82f1 45be 00a5 52be b243 95be 7e83 623e
000001f0: 5572 5dbd 25f1 033e 6969 293d e5d3 bcbd
00000200: c9e4 bdbc 7628 c3bb 5986 193e e982 613e
00000210: 10a5 42be b436 1b3e 9edd 4abe 072f 8ebe
00000220: 0330 543e a4f0 cc3c caae d83d 3df3 c1bc
00000230: 43af 8cbe 33c0 b0be 513c e33d 5021 9a3e
00000240: f214 ad3b 6b6c 7bbe b839 aebe fcfd 00be
00000250: 6b1b 253e 3a1f 683e 6fba 7cbd 3844 03be
00000260: b48c ddbc 936e 393e aa84 e7bd 65d3 a33e
00000270: f8ae 28bd b509 8e3e 5932 793e 4da2 b53c
00000280: b0ca 10be f498 c4bd f505 543e a058 8b3d
00000290: 38a3 583e b1ee 36be e416 dfbd 7f28 353e
000002a0: b2f8 f53c 4b8b 9abe 4e4b 193e f279 81be
000002b0: 6094 77bd 1439 013e 6a9f 1b3c a8a5 583d
000002c0: 37be 873d 3f6c 9cbe ae0f 803d b2d5 f83d
000002d0: 3133 1e3e e0b7 a43c f7d5 7abe 850c 343d
000002e0: 8a42 243e 53e9 e23c 48b8 c93d d9a5 973e
000002f0: f17f b1be d55e 6a3e 0a2a 183d b965 79be
00000300: cdc6 a4be a5c5 dbbd 374d 39bc e7b2 183e
00000310: 9245 543e 9d0f 0dbe 304b e3bd e761 6cbe
00000320: 6892 3fbd 1a7f 8abe 4281 a93d ee24 d9bd
00000330: 338d 50be 0023 2ebe 8e1d f6bd 5828 673e
00000340: 407d 693e 8163 e03e 312a 953e fdb8 b7be
00000350: d525 f63d b399 803e c392 703e 19fd 993e
00000360: 0446 013d a411 9a3d 69e9 133e 2b34 a63e
00000370: 2440 a43e bf12 dabc 0773 6a3e ed90 9cbd
00000380: 55b8 88be 4951 0d3e 9e6b 16bb 949e e0bd
00000390: 6708 31be ede7 6cbe 4f1d 5ebe fc2c 5dbd
000003a0: 5224 a5be 5eaf d03d a296 543e ec0f 97bd
000003b0: e233 013e f0a9 183e 5e14 40be 0fa4 563e
000003c0: 6f15 f3bd ab90 74bd 2c22 203e b111 9b3e
000003d0: f6f4 6bbe f15d 5e3e fbd6 5d3e 826c 4f3e
000003e0: 4f62 08be dacf 8abe d884 97be b1ca 2c3e
000003f0: dd34 8b3d 1819 3d3e 352f 0cbe 8fa8 023e
0.17433064 0.31852877 -0.082925126 -0.055608563 0.15418795 0.039249748 -0.1745931 0.063914195
-0.13430855 -0.2362974 0.35759848 0.267813 -0.32522658 -0.025057396 0.044435855 -0.26933223
-0.2136222 -0.038683854 0.10492474 0.24250877 0.28114712 0.03350686 0.07321651 0.15871397
0.15959409 0.10414262 0.034992196 0.28755507 0.24710865 -0.26034465 0.09538756 0.2871541
0.064987496 -0.1926772 0.36958125 -0.030757537 -0.067424245 0.14902605 0.10638424 0.2065165
0.1492408 -0.1949892 0.2052242 -0.23727219 -0.3489452 0.2568505 -0.116038665 0.07517393
-0.2521348 0.21330644 -0.32234707 0.04627552 0.07819739 0.32071826 0.19443285 0.23937371
-0.36187696 -0.23465388 0.2491209 -0.101363495 0.33283338 0.20328759 -0.06350831 0.06386559
-0.19171315 0.25767073 -0.13233744 0.28258988 0.17780812 -0.06315952 0.09345651 0.2986999
-0.06973573 -0.22862478 0.0010929015 0.03683048 0.2745986 0.11749628 -0.24936247 0.16286133
0.099529535 -0.037920877 -0.050996184 -0.20086727 -0.102244884 -0.029780328 -0.25698993 -0.22875828
0.28004402 -0.05284428 -0.2926293 -0.16090485 -0.21437618 0.25752342 -0.2433444 -0.25541618
-0.058878288 0.27902162 0.2077458 0.13059212 0.03741387 0.2518972 0.010805403 0.18115948
-0.1867952 0.2494139 0.09593076 -0.16550481 0.14705475 0.300972 -0.1093216 0.35513735
0.009292663 -0.13505076 -0.25127077 0.10008418 0.20086716 -0.18530652 0.017240241 0.3188804
-0.19330409 -0.20570755 -0.2915321 0.22120473 -0.054064114 0.12884958 0.041360293 -0.09220103
-0.023180382 -0.005955751 0.14992656 0.22022595 -0.19008279 0.15157586 -0.19811103 -0.27770254
0.2072144 0.02501709 0.10580213 -0.023675555 -0.27477464 -0.34521636 0.11095489 0.3010354
0.005282038 -0.24553077 -0.3402841 -0.12596887 0.1612374 0.22668162 -0.061701234 -0.12818992
-0.027044632 0.18108587 -0.113046005 0.3199722 -0.04118249 0.2774178 0.24335612 0.022172118
-0.14139819 -0.09599486 0.20705397 0.06804013 0.21156013 -0.17864491 -0.10893038 0.1769123
0.030025814 -0.30184397 0.14970133 -0.2528835 -0.060444236 0.1261943 0.0094984565 0.052892357
0.066280775 -0.30551335 0.06252991 0.12150134 0.15449215 0.02010721 -0.24495684 0.043957252
0.16041008 0.027699148 0.09849602 0.2961872 -0.34667924 0.22887738 0.037149467 -0.2435521
-0.32182923 -0.10731057 -0.011309913 0.14911996 0.20729664 -0.13775487 -0.11098325 -0.23084222
-0.046770483 -0.27050096 0.08276607 -0.10602747 -0.20366363 -0.17005539 -0.12017356 0.22573984
0.22801685 0.43825915 0.29133752 -0.35883322 0.12018935 0.25117263 0.23493485 0.3007591
0.031560913 0.07522896 0.14444508 0.32461676 0.32080185 -0.026620267 0.22895442 -0.0764483
-0.26703134 0.13800539 -0.0022952328 -0.109677464 -0.17288361 -0.23135348 -0.21690868 -0.05399798
-0.32254273 0.10189699 0.20760587 -0.07376084 0.12617448 0.14908576 -0.1875777 0.20961021
-0.118693225 -0.05970828 0.15638036 0.30286935 -0.23042664 0.21715523 0.2166404 0.20256236
-0.13318752 -0.27111703 -0.2959354 0.16874196 0.06797192 0.18466604 -0.13689883 0.12759613

linear1.bias f4 [256]
00000000: 361d d5bd c2ca 4f3e 1ce9 9a3d 73ab 4c3e
00000010: 1a5e 04be 32a3 96bd 69ea 983e 0d3f 11be
00000020: 97be 95be 0428 36bd 29f8 343e 054b 323e
00000030: cc25 8f3e fd5b a63c 564c 3f3e 12bb b43c
00000040: 4194 da3d aa41 aa3d 8aef 66be a689 74bc
00000050: 3398 c23e bc84 93bd 6a6d b23c fac9 8bbd
00000060: addf 8c3e f760 91be f0f4 323e 8921 813e
00000070: dcad 23be 2b85 37be 05ce 8d3e 45e7 fabd
00000080: 0444 c93e 5aa9 a23e d682 3b3d 1619 133e
00000090: 2a41 4ebd 6d66 993d 1a51 60bd 3d3e 00bc
000000a0: e2bc 60bc b545 8dbe f34d 0abe 39df 1ebe
000000b0: 31e1 c8bd dc4e 4e3e 442b fcbd 7df4 963d
000000c0: a79e a33e 5064 97be 1ac2 4f3e 9eed 4d3e
000000d0: 2613 7e3d e335 7d3d ef82 8cbe 1290 45be
000000e0: 078e d03e fffa 21be 46b5 01be a013 173e
000000f0: 1d88 b63d e327 aa3d 7022 a53e 4c92 05be
00000100: 7d1e e03b 4895 9abe 9d44 6fbd bf21 88be
00000110: 1b8e ae3e c737 f43d c7a5 2bbe 75b7 123d
00000120: 4f05 813c 09bb 7cbd a525 96be 4191 ff3d
00000130: eec5 843e e904 6d3d 7f88 e1bd f770 ab3e
00000140: 8494 8d3e 2b0f 17be 0d7d fe3d c98d 41be
00000150: 1354 edbd 1e7b 3e3e 9332 d03d e2a5 d0bd
00000160: 9210 6ebe 4b71 283e 4044 7abe 7a38 85be
00000170: c089 a2be 6923 3fbe 07eb b33e 35cd cfbd
00000180: e27c 803e 24d3 173d 5d0e 6b3e 2747 1c3e
00000190: c740 a23e 63cf 29be de5c ebbd 71c0 7d3d
000001a0: 773f bf3d 3414 68be a07c 0a3e fc85 68bc
000001b0: 6139 c23d f5e0 933e 3ab1 a7bb 7c50 bf3e
000001c0: ba4d 7abe 66cd a5be f925 bebb ef56 a6bd
000001d0: 90b5 3ebd b6d6 28be a4ff 82be f9a2 b03e
000001e0: ba11 0fbd 0052 7bbd 2b86 adbd c5bd ad3e
000001f0: 2c76 a93e d62e a7bd 333a 94be 7403 a13e
00000200: 859e 983c e1e6 993e 8142 813e 43e1 ab3e
00000210: b7ee d03e 2f97 e5bc 7855 28be fcff 2a3d
00000220: b74c 883e a3d3 e2bd 2ca4 68bd 09d2 b03e
00000230: 629f 9e3d 2d53 98bd 2f57 703e b1b2 8e3e
00000240: 3cd7 3c3e 984f 30bd 78fc 9b3e 5772 aa3c
00000250: e6cb b8bc 94af 033e f991 843e 6b22 7f3e
00000260: 3d56 a8be 4429 4bbe c1b7 603e c252 1c3e
00000270: e6a1 ea3d 25b6 293e e603 2fbe 51a7 44be
00000280: ca21 b33e a78b 8fbe 3187 b93e eb9a a13d
00000290: 1d89 3abe 6cb4 513e 5e07 a93e 79d9 4e3e
000002a0: 01ac c2bd 4153 3d3d 726a 3ebe c4e1 35be
000002b0: 6ac9 06bc 0100 f83d 6c7e d7bd 7d1f 963e
000002c0: 8122 9a3e 2c41 403e 6f5b 75bc e39c ab3e
000002d0: 05b9 393d cd25 8e3e 5fb7 46bd 836a 0e3e
000002e0: 847f c63d a910 163d 5ebf 5dbd a22f 893d
000002f0: 0472 41be ff03 0f3e 290a b6bd a3db 3d3c
00000300: eaad 563e bfac 35bd fb09 b5bd 139e a1be
00000310: cd62 9abe 3dbd db3d 2031 493e 4f79 b13e
00000320: d918 54bd d3b1 a03e 530c 44bd e38b 953e
00000330: c8ea b93e 8217 703e c454 07bd 5d41 b53e
00000340: a158 abbc 399f 18be b996 c8bd 6097 1bbe
00000350: 905c a63e aed3 2e3b 47a8 1c3e 85a9 85be
00000360: efef 00bb 639d 9b3e cbaf 783e b1c8 bb3e
00000370: 492c 8d3e 9745 053e 9f9d 95bd 3efc ebbd
00000380: 5321 84be 68b6 ac3e 5ab7 6e3d 84c2 083e
00000390: f8b7 30be d71a 10bd 6309 373d fbd4 79be
000003a0: 5ac3 823d af22 d73d 7a82 ff3d 04f1 973e
000003b0: 3c34 81be 45a7 24bd e990 8f3e 202f a9bc
000003c0: 8af6 9e3e 9342 c63e 90b7 86be dbe8 4e3d
000003d0: 6563 ae3d 64f8 89bd 9f38 9abb 531d ae3d
000003e0: 751d 7ebe 26ba 32be 9532 81be 56d6 55be
000003f0: 5607 33be f328 bc3d 87a6 20be 8975 423d
-0.10405962 0.2029219 0.07563993 0.19987278 -0.12926522 -0.07355346 0.2986634 -0.14184208
-0.2924697 -0.044471756 0.1767279 0.1741143 0.27958524 0.020307535 0.18681464 0.022061858
0.106728084 0.08313306 -0.22552314 -0.014925396 0.38006744 -0.072030514 0.021780688 -0.06825633
0.275144 -0.2839429 0.17476249 0.25220898 -0.15984291 -0.17921893 0.27696243 -0.122511424
0.39309704 0.3176983 0.04577907 0.14365038 -0.050355114 0.07490239 -0.054764844 -0.007827339
-0.013716908 -0.27592245 -0.13506298 -0.1551484 -0.09808577 0.2014727 -0.1231294 0.07370851
0.3195698 -0.2956872 0.20288888 0.20110175 0.06202998 0.06181897 -0.27443644 -0.1929324
0.40733358 -0.15818404 -0.12666807 0.1475358 0.0891268 0.08308389 0.32252836 -0.13044089
0.006839572 -0.30192018 -0.058415044 -0.26588246 0.34092793 0.11924701 -0.16762458 0.03581949
0.015749602 -0.061701808 -0.29325595 0.12478877 0.25932258 0.05786601 -0.11012363 0.33484623
0.2765237 -0.1475188 0.12426195 -0.18901743 -0.115883015 0.18601653 0.10165896 -0.1018789
-0.23248509 0.16449468 -0.24440098 -0.2601965 -0.3174572 -0.18665852 0.3514025 -0.10146562
0.25095278 0.037066594 0.22954698 0.15261517 0.31690046 -0.16583018 -0.114923224 0.061951105
0.09338277 -0.22663957 0.13524103 -0.014192101 0.094836004 0.28882566 -0.0051175626 0.37366092
-0.24443713 -0.3238327 -0.0058028665 -0.0812205 -0.04655987 -0.16488156 -0.25585663 0.34499338
-0.034929015 -0.0613575 -0.08472856 0.33933845 0.3309797 -0.0816323 -0.28950652 0.31447947
0.018630276 0.3005896 0.2524605 0.335703 0.40807125 -0.028026192 -0.16438854 0.041748032
0.2662103 -0.11075523 -0.05679719 0.34535244 0.077452436 -0.074377395 0.23470758 0.27870706
0.1844148 -0.043044657 0.30466056 0.020806475 -0.022558164 0.12859946 0.25892618 0.24915473
-0.32878295 -0.1983996 0.21945097 0.15265945 0.11456661 0.16573389 -0.17091331 -0.19204451
0.34986717 -0.28036234 0.36235955 0.078908764 -0.18216367 0.20478982 0.33013433 0.20200147
-0.095054634 0.046221975 -0.18595293 -0.17761904 -0.008226732 0.12109376 -0.1052216 0.293209
0.3010445 0.18774861 -0.014975413 0.33518133 0.045342464 0.27763215 -0.04851472 0.13907818
0.096922904 0.036636982 -0.05413758 0.06698538 -0.1889115 0.13966368 -0.08888657 0.01158801
0.2096478 -0.044354197 -0.08839794 -0.31565914 -0.30153504 0.10729454 0.19647646 0.34662864
-0.05178151 0.3138567 -0.047863316 0.29208288 0.36311936 0.23446468 -0.033039823 0.3540143
-0.020916285 -0.14904489 -0.09794373 -0.15194464 0.32492495 0.0026676464 0.15298568 -0.26105896
-0.0019674262 0.30393514 0.2428581 0.36676553 0.2757285 0.13014828 -0.073054545 -0.11522721
-0.25806674 0.33732915 0.058280326 0.13355452 -0.17257679 -0.035181846 0.044686686 -0.24397652
0.063849166 0.10504662 0.12476058 0.29676068 -0.25235164 -0.040198583 0.28040245 -0.020652354
0.3104747 0.38722667 -0.26311922 0.050515037 0.08515052 -0.0673683 -0.004706457 0.08501687
-0.24815924 -0.17453822 -0.25233904 -0.20882544 -0.17483267 0.09187498 -0.15688525 0.04747537

linear2.weight f4 [3, 256]
00000000: 86c8 ffbd 7ce7 13bd 0dc7 09bd 57fb 4a3b
00000010: 5086 143e 6150 61bd 5af5 8fbb 8896 cf3c
00000020: bdca 61bc dc44 0fbe a36c 5ebd 96a6 a23d
00000030: 5d12 4dbc 96c8 e1bd 22ac 30bd 3ff3 443d
00000040: 3715 493c 429f 15bd 5bac 2ebd abab 10be
00000050: 2c34 3abe c91f 6c3c 1da3 b7bc a23f edbc
00000060: 8dc8 cd3d 88f7 7abc 4143 80bd f422 9e3a
00000070: bad6 d8bc 83a5 a7bd 1409 fbba b43a 97bd
00000080: b9c0 f3bd fc3d f43d be22 59bd 821f 3d3d
00000090: 5c3a 0bbe 97a3 51bd 9196 4bbc 0800 4dbc
000000a0: 1ba2 c63c 2ee3 55bd 1cbd 07bd 2356 ac3c
000000b0: c6f0 033d ea38 23be 3adb ba3c 0c8c 0e3e
000000c0: 474e 0fbe 6ef6 5c3d 5ba8 a83b 2a2a 95bd
000000d0: 2157 a53d 3b3a b03c bcbc f1bc 7d54 eebc
000000e0: ee48 0fbe 4fd8 20bd d0db 0f3e da87 13be
000000f0: e25d 18bb 7b09 90bd 444c 9abd 40da 8c3c
00000100: 6515 f8bd 3935 a73d 8218 34bb 5864 f43c
00000110: 1fb3 cabd 6db5 a5bd d48c 29be 5a23 8dbd
00000120: 50ef 9fbb 08a9 a1bd 0018 113d 9f4d 253e
00000130: e76c 13be d48c 07be ce28 123d 0c08 ffbd
00000140: 4397 c3bd aad2 1b3d 2446 863d 0df0 f2bc
00000150: f918 003d e718 cabd 8939 3cbd 0807 873b
00000160: 2ec2 133a 9abd 14be 1e3d e7bc fb4a a23d
00000170: 14fb de3c 808a ac3c 8969 f2bd 0b0f c6bd
00000180: ed34 24bd 3378 79bb e202 a5bd 64d1 a93c
00000190: f335 98bd cca1 3a3d c62d babc 12dd 3e3d
000001a0: 9920 03bd 6cf4 e0bd a645 12bd 4d99 83bc
000001b0: 74f6 8a3d 6a15 a73c b70f 60bd ca31 d9bd
000001c0: da27 43bd 93d4 49ba 4bad 8bbc d5ab cfbd
000001d0: bf42 f5bd e118 2d3d 15e9 b23c 69d7 84bd
000001e0: d3fe 243b 56cd 1d3d 89eb b9bd fe04 0ebe
000001f0: 9924 cfbd 19cb e83d ab37 b63a 9a95 f0bd
00000200: 8463 423d d989 273d db18 cb3d 009f 68bd
00000210: f250 adbd 2952 bd3d 2249 213d d29b 97bd
00000220: b977 6bbd 0f77 f23d a985 d0bc 0d15 083d
00000230: 5070 24bd de60 bebc bd0e c1bc 9577 4ebd
00000240: e3fa 45bd 4efa 0bbc ece1 b2bd 1ed6 9cbc
00000250: 57c9 e1bd efb6 cf3a bb2b 22be 1118 98bc
00000260: 49c4 27bd c11f 273e 8044 4abd d7fe e4bc
00000270: ea37 523c 1822 d1bd ad7a c8bc fff1 ee3d
00000280: df01 c9bd c255 5e3b 03b3 e5bd c1f5 9ebc
00000290: 89ae 02be 3f53 b7bd 6ab7 28be f4c7 e5bd
000002a0: 3ecd fd3c 94b1 c6bd 473e 8abd 7879 17be
000002b0: 8029 ef3d ab98 77bd 9738 fabd 2d42 c3bc
000002c0: 707c 60bd 45cf 143d 4937 14be 26e5 dfbd
000002d0: 4cb3 c13d 0a91 a7bd 4d1d 72bd d784 38bd
000002e0: 657c d13b c70d e73c bf59 a6bd 84cb 2bbe
000002f0: 1f78 93bd 5224 69bc d0cd 9fbb 8a34 fa3b
00000300: dddd 97bc ed09 493d 20d7 1a3d 0bde 1b3c
00000310: 2e6c 4c3d 02e5 bdbd adc4 ff3c d52f cebd
00000320: d524 19be 3514 a1bd d921 a63b 4710 7abd
00000330: f1b8 1ebe ec73 a7bd 2aee 0cbe 4c30 84bd
00000340: f9fc bb3b e6e7 0fbd 6b00 42bb b77e c93d
00000350: 1498 d7bd d1db b0bd 808d 423e 5f7a eebc
00000360: 2e3d 1fbd 578d dd3d 6710 a0bd c6c5 ff3c
00000370: 2d80 16bd a09f 74bd 3f17 0e3c 3d98 4b3c
00000380: 00a1 e3bc 607f b83d 758f 26be e243 2b3d
00000390: 91b5 8a3d 0be0 e2bc 1d5d 2fbd 6b44 b1bc
000003a0: 06e5 94bc 8edd fcbc 02b1 493c 70fe fbbd
000003b0: ed2b 033d cefb 84bd 9652 6dbd 0188 84bd
000003c0: ed93 dabd 2578 fbbd d813 4bbc 0734 b9bc
000003d0: 7419 713d 1153 273e c8eb 633c 5157 c1bd
000003e0: e0b2 b73c 1168 1bbd 2288 7dbd 10c2 35be
000003f0: f768 37be 5058 acbc 61b4 05bd 3bc1 adbd
-0.12489419 -0.036109433 -0.033637095 0.0030972564 0.14504361 -0.055008296 -0.004393262 0.025340334
-0.013781247 -0.13991112 -0.054302823 0.0794193 -0.012516585 -0.11024587 -0.04313291 0.04808354
0.012273124 -0.036528833 -0.04264484 -0.14127986 -0.18183964 0.014411875 -0.022416646 -0.028961007
0.10048018 -0.015317805 -0.06262828 0.001206486 -0.026469577 -0.08185866 -0.0019152486 -0.073842436
-0.11901993 0.11925885 -0.05301165 0.046172626 -0.13596481 -0.051181402 -0.012426035 -0.0125122145
0.02424722 -0.05221861 -0.033139333 0.021037167 0.03221204 -0.1593968 0.022809613 0.13920611
-0.13994704 0.05394595 0.0051470227 -0.07283433 0.08073259 0.021512141 -0.02950894 -0.029093022
-0.13992664 -0.039268788 0.14048696 -0.14407292 -0.0023249318 -0.07033058 -0.07534078 0.017193913
-0.12113456 0.08164448 -0.0027480428 0.029833004 -0.09897446 -0.08091245 -0.16557628 -0.068915084
-0.004880823 -0.07893568 0.03542328 0.16142891 -0.14397012 -0.13237315 0.035683446 -0.12452707
-0.09550335 0.0380427 0.06556347 -0.02965548 0.031273816 -0.09868031 -0.045953307 0.0041207112
0.000563654 -0.14525452 -0.028227385 0.07924458 0.027219333 0.021062136 -0.118365355 -0.09670838
-0.040089536 -0.003806603 -0.080571905 0.020729728 -0.07432165 0.045564458 -0.022726905 0.046597548
-0.03201351 -0.1098412 -0.035710953 -0.01606431 0.067852885 0.020395953 -0.054702487 -0.106052
-0.047645427 -0.00076992175 -0.017050406 -0.10140196 -0.119756214 0.042260054 0.021839658 -0.06486399
0.00251763 0.0385259 -0.09078128 -0.13869092 -0.10114402 0.11366863 0.0013902088 -0.11747284
0.047458187 0.040902946 0.0991685 -0.05679226 -0.08462705 0.092441864 0.039376386 -0.07402767
-0.057487223 0.11839115 -0.02545436 0.0332232 -0.040146172 -0.02323955 -0.023566598 -0.05040701
-0.048334967 -0.008543564 -0.087344974 -0.019145068 -0.11024731 0.0015847365 -0.15836994 -0.018566163
-0.040958676 0.16320707 -0.049381733 -0.027953548 0.012830714 -0.10211581 -0.024472559 0.11667251
-0.0981481 0.0033925627 -0.112157844 -0.019404294 -0.12761892 -0.08951425 -0.16476217 -0.11219779
0.030981656 -0.09701839 -0.0675016 -0.1479243 0.11677837 -0.06044833 -0.12217825 -0.023835266
-0.054806173 0.03633048 -0.14474215 -0.109323785 0.09458026 -0.08181961 -0.059109975 -0.04504856
0.006393003 0.028204812 -0.081225865 -0.16776854 -0.07200646 -0.014229851 -0.0048768297 0.0076356577
-0.01853841 0.04908173 0.037802815 0.009513388 0.049907856 -0.092721954 0.031221712 -0.10067717
-0.14955457 -0.07865182 0.005069953 -0.06105068 -0.15500237 -0.08176407 -0.13762727 -0.064545244
0.005736944 -0.035133265 -0.00296023 0.09838622 -0.105270535 -0.08635677 0.1899929 -0.029111085
-0.038876705 0.10817974 -0.078156285 0.031222235 -0.03674333 -0.059722543 0.0086725345 0.012426433
-0.027786732 0.0900867 -0.16265662 0.041812785 0.06772912 -0.027694723 -0.04281341 -0.02163907
-0.018175613 -0.030867364 0.012310268 -0.123043895 0.032024313 -0.064933404 -0.05794009 -0.06471253
-0.10672746 -0.12278775 -0.012394868 -0.022607816 0.058862165 0.16340281 0.013911195 -0.094404824
0.022424161 -0.037941042 -0.061897404 -0.1774981 -0.17911135 -0.021038204 -0.032642726 -0.084841214

linear2.bias f4 [3]
00000000: 1689 e7bd c7ed 72bd 3582 fcbd
-0.11305444 -0.059308793 -0.123295225
